learn/model.pth (torch, 1119 bytes, 2 tensors)

weight f4 [2, 10]
00000000: 408c e73c 3951 923e f65d 763e 088f 9abe
00000010: 30a1 07bd e8cc 1e3e 3114 9ebe 386b 213e
00000020: 21b2 9bbe d0cb a6bc 00f8 8f3b d476 f9bd
00000030: b2a9 9ebe d21d 463e 6c58 d13d fa9b 153e
00000040: 6f97 873e 7e76 753e b4d2 043e 988c 6e3d
0.028265119 0.28577593 0.24059281 -0.3018725 -0.033112705 0.15507853 -0.3087478 0.15763557
-0.3040934 -0.020360857 0.0043935776 -0.12180868 -0.30988842 0.19347313 0.10221943 0.14610282
0.26482722 0.23970982 0.12971002 0.05823955

bias f4 [2]
00000000: 0197 77be 5ebb 473e
-0.24178697 0.19505069
